src/models/030922-01h03-t5-base_50/prompt_030922-14h57_50.pth (torch, 158751 bytes, 3 tensors)

embedder.weight f4 [50, 768]
000000 3b 43 3a 3d 95 96 83 3c 5c 04 4e bd e8 94 90 3d
       0.045474272 0.016063014 -0.050297126 0.070596516
000010 5b f2 50 3e 96 cb a7 bd 0a 63 78 bd e2 52 73 3e
       0.20404951 -0.08193128 -0.060641326 0.23762086
000020 20 6e 23 3d 51 c6 af 3d 83 cf 09 3e 82 9c a7 3b
       0.039899945 0.08582748 0.13458066 0.0051150927
000030 d6 81 93 3e 1d 40 78 3e ac a5 1c bc 3b 94 85 bd
       0.28809994 0.24243207 -0.009560984 -0.06522413
000040 b8 77 32 3b c6 e1 09 3e 7c ef ad bd a2 8d f1 bd
       0.0027232002 0.13465032 -0.08492944 -0.117945924
000050 6f 79 ac bd b6 63 e3 3c c3 6c 09 bd c6 68 dd 3d
       -0.08421599 0.027757507 -0.03355099 0.108109996
000060 46 d1 c0 3b 6a 8a ef bc c2 d5 e8 3c 10 3e e0 be
       0.0058843223 -0.029240806 0.02842224 -0.4379735
000070 96 b8 15 3d 0c 45 e0 bc f4 79 2f be b3 58 d8 3d
       0.036552988 -0.027376674 -0.17136365 0.10563793
000080 bc 7d 01 3e a4 be f3 bc 2e 03 2a 3e 69 6b 47 be
       0.1264562 -0.02975399 0.16602775 -0.19474567
000090 3f 9c 0a 3d f9 36 80 bc 4b 1b e8 bd 27 34 b3 be
       0.033840414 -0.015651213 -0.11333331 -0.35000727
0000a0 d7 7b 7b ba c8 75 73 be 95 5f 4d bc 8f c4 83 3e
       -0.0009593344 -0.23775399 -0.012534996 0.257359
0000b0 4c 45 f9 bd d2 2b ab be 57 57 dd bd 44 dd 23 be
       -0.121714205 -0.3343187 -0.108076744 -0.16002375
0000c0 84 0d 8c 3e c4 85 a6 bd 86 46 40 be a7 5d 21 be
       0.27354062 -0.081309825 -0.18776903 -0.15758382
0000d0 71 e7 6d 3b de b9 5a bd 9a ba 39 3c 29 d3 5e bb
       0.003630128 -0.053399913 0.011335993 -0.0034000373
0000e0 67 86 fa 3d e0 21 16 3e 65 01 31 be 85 75 04 3f
       0.122326665 0.1466136 -0.17285688 0.5174182
0000f0 69 8b 71 bb 83 22 c6 3e 5e 0a 42 3e 06 8f 6f be
       -0.0036856777 0.38698205 0.18949267 -0.23394403
000100 8a fd f6 3c ba 10 86 bd b4 db 7e 3e 3b 41 44 bb
       0.030150194 -0.06546159 0.24888498 -0.0029946107
000110 58 ca c8 bd 98 9e b9 3d 60 bf 44 3e bb 42 34 3d
       -0.09804219 0.090634525 0.19213629 0.04400895
000120 ef 95 24 be 4a d9 67 3d ce 1f 25 bd ec 2e cc 3d
       -0.1607282 0.056603707 -0.040313534 0.09969887
000130 b1 80 6d 3d 69 41 4b be 4a c2 91 be 67 ae 75 bd
       0.057984058 -0.1984917 -0.28468543 -0.059980776
000140 0a 38 60 be 16 06 01 bb f9 a7 86 bd f3 ad 4d 3d
       -0.21896377 -0.0019687465 -0.06575007 0.05021472
000150 a8 f5 6f 3d 20 e7 8f 3e 2e 0f 78 bd 6e af 3f be
       0.058583885 0.28106022 -0.06056135 -0.18719265
000160 7a c2 7b bd d0 95 7a bc 7b ef e8 bd 49 bb 39 3e
       -0.061464764 -0.015294507 -0.11373802 0.1813785
000170 c9 73 93 bd 76 9b 09 bd bb 1e 37 3d 4f 07 ad be
       -0.07199819 -0.033595525 0.04470704 -0.3379464
000180 2e 05 67 3d 33 13 00 bd ff 2b a4 3c 70 11 74 bd
       0.056401424 -0.03126831 0.02004051 -0.059586942
000190 cd 7c a1 bc b0 82 f4 3d 60 5f 48 3d d1 b9 39 3e
       -0.01971283 0.11938989 0.04891908 0.1813729
0001a0 97 00 d7 3d c5 9e 46 be 73 81 19 3e 44 de 12 3c
       0.104981594 -0.19396503 0.14990787 0.008964125
0001b0 bc 77 72 bd 90 6e ba 3b f7 1c 0a 3c 82 97 43 bd
       -0.05919622 0.0056894496 0.008429757 -0.04775191
0001c0 f2 0b 28 be c0 78 8d be 60 f3 fb bd b0 3b 29 be
       -0.16410807 -0.27631187 -0.123022795 -0.16526675
0001d0 1a a4 fc 3d b2 2e a6 3e 37 1c 2d 3e ff 25 41 be
       0.123359874 0.324575 0.16905294 -0.1886215
0001e0 74 8b 52 3b d7 d3 2f 3e f1 53 a4 be df 57 85 3c
       0.0032126578 0.17170654 -0.32095292 0.016277252
0001f0 ae aa d3 3d f1 ff b8 bd 36 25 0d bc fa 9e 75 be
       0.10335289 -0.09033192 -0.008614829 -0.23986426
000200 fa 26 57 3e 46 c9 08 bd f7 2a c4 3d 5e 88 00 bd
       0.21010962 -0.033395074 0.095785074 -0.03138005
000210 c4 d2 00 3e 6c fc 81 3c 25 3e cf 3d 3e d7 db be
       0.125804 0.015867434 0.10119275 -0.42937654
000220 bb b2 e9 bd cd ad 88 bd 4b cd b7 bd 6b 92 bc bd
       -0.11411043 -0.06673775 -0.089747034 -0.092076145
000230 a0 2b 21 be 05 b2 14 bd d2 3c 88 3e 38 62 f2 bd
       -0.15739298 -0.036302585 0.26608902 -0.1183514
000240 d1 df 97 3d e0 6c 59 bc 27 de c9 3d b5 2f ec 3d
       0.074157365 -0.013270587 0.09856825 0.11532537
000250 ca c8 21 be e3 62 d4 bd 12 00 0e 3e 72 0f 9f be
       -0.15799251 -0.10370424 0.13867214 -0.3106647
000260 b7 cb 1a bd 8d a2 47 3e f1 38 5a be 8a a2 dd be
       -0.037791934 0.19495602 -0.21310784 -0.4328807
000270 fc 46 a9 be 33 00 d3 bd 58 4f a1 be fd 30 3d be
       -0.3306197 -0.103027724 -0.31505847 -0.18475719
000280 55 11 0e be c6 e2 1c 3e d2 62 c6 bd 60 0b b1 3d
       -0.13873799 0.15320882 -0.09686817 0.08644748
000290 ab 20 69 bc de 14 d1 3d 8f c4 6b be 28 04 4e 3e
       -0.01422898 0.10209058 -0.230242 0.20118773
0002a0 1c ac 44 3d 88 db 81 3d 4a 8b 1b be 90 c4 d8 bd
       0.0480157 0.063407004 -0.15189853 -0.10584366
0002b0 c2 8d 3d bd 89 c1 a0 bd f7 bf 12 3d 7f 7c c4 be
       -0.04627777 -0.07849414 0.035827603 -0.38376233
0002c0 8a a1 bc 3e 42 44 8a 3d 7d d3 91 3b 0c cb 03 3e
       0.36841995 0.067513004 0.00445026 0.12870425
0002d0 a0 e5 33 3d 56 35 c3 bb 4b d9 1e be 6d fb 0d bd
       0.04392016 -0.005957286 -0.15512578 -0.034663606
0002e0 2f bf ef 3e f5 e5 10 3e 4c cc 6c 3e 1e c1 43 bd
       0.4682555 0.14150222 0.23124808 -0.047791593
0002f0 e2 17 0c 3e 23 3a 64 3d e8 a6 8c 3d 82 32 05 be
       0.13680986 0.055719506 0.06867772 -0.13007548
000300 a9 ae 7a bb fe fd 13 be d7 74 12 bd 44 78 14 3e
       -0.0038251078 -0.14452359 -0.03575596 0.14499003
000310 a3 11 9a bd c5 a4 31 bd f6 1b 77 3e e6 08 3d be
       -0.07522895 -0.043370027 0.2413176 -0.18460426
000320 14 6f ff bc 1d e9 7e 3d 12 9f 74 3e 1c 0b ba bd
       -0.031180896 0.062234033 0.23888806 -0.0908415
000330 a0 74 df bc a7 f8 40 3e 85 2b ee 3d 4a 81 ef 3c
       -0.02727729 0.18844853 0.116293944 0.029236455
000340 cc 3c 37 3e d0 45 2f be da 5c 16 be aa 95 4f 3e
       0.17894286 -0.17116475 -0.14683858 0.20271936
000350 df 2a 60 3e 49 96 9e be 3e 04 40 bd 4b a0 3f be
       0.21891354 -0.30974033 -0.046879046 -0.1871349
000360 32 76 8f be f1 8a 59 3e 56 b8 fa bd 8d 90 9a bd
       -0.28019863 0.21244408 -0.122421905 -0.07547102
000370 9e 00 21 3e 94 3c a1 3d 4c a8 5a 3e bb 5f 4e 3e
       0.15722892 0.078728825 0.21353263 0.20153706
000380 cb ef 29 3e 40 67 11 3e cc d3 e4 bd c9 56 7e 3d
       0.1659538 0.14199543 -0.111732095 0.062094484
000390 74 6b 13 3d a8 64 ec 3c 56 73 1b 3e b9 ea 51 be
       0.035991147 0.02885659 0.15180716 -0.20499696
0003a0 f5 12 bb 3d 11 e0 ce be 9a 2b 10 3d fc 79 62 be
       0.09134475 -0.40405324 0.03519783 -0.22116846
0003b0 02 21 af bd e2 7d 8d 3d d6 63 53 be 06 b9 8b 3d
       -0.085512176 0.06908776 -0.20643553 0.068224
0003c0 8e f0 69 bd cc 20 17 3d 88 54 0a be 63 ec 7d bd
       -0.057114176 0.036896512 -0.13508809 -0.061993014
0003d0 ed 88 9a bd ba c1 16 3e db 0e aa bd 74 74 97 3d
       -0.07545648 0.14722338 -0.08303615 0.073952585
0003e0 ca 00 ae bd 7f aa 70 3c d8 67 e0 3d 74 16 73 3e
       -0.08496244 0.014689087 0.109573066 0.23739034
0003f0 2a 14 9d 3e 6d 7d 32 3e 16 23 a6 3d 02 00 3a 3e
       0.30679446 0.17430659 0.08112161 0.18164065

exp_avg_sq_row f4 [50]
000000 c3 09 30 36 ec 88 60 36 25 69 3c 37 2c 90 0a 37
       2.6231726e-06 3.34583e-06 1.1230154e-05 8.259009e-06
000010 54 74 cc 36 96 db 1a 37 41 c2 d6 36 1f ed 0a 37
       6.093216e-06 9.230242e-06 6.400311e-06 8.28065e-06
000020 35 2e 18 37 93 50 8a 36 cb 4e 1f 37 8e 90 da 36
       9.070664e-06 4.1221006e-06 9.495484e-06 6.5137347e-06
000030 1a 55 55 36 3e 24 16 37 97 b4 1e 38 a4 59 3d 37
       3.178901e-06 8.949135e-06 3.7838323e-05 1.1286149e-05
000040 33 c4 d4 36 11 fa ff 35 29 aa 0f 37 97 e4 93 37
       6.340933e-06 1.9071759e-06 8.563083e-06 1.7630211e-05
000050 f6 ab f3 36 99 dc 68 37 02 49 1e 38 59 31 3e 37
       7.2619832e-06 1.38796395e-05 3.773813e-05 1.1336372e-05
000060 9d f0 96 36 90 4c 33 37 a6 04 c3 36 0a 8c ba 36
       4.4983594e-06 1.06870575e-05 5.811994e-06 5.5595347e-06
000070 82 42 0e 37 51 94 0c 37 a8 52 d3 36 10 84 2b 37
       8.479345e-06 8.379183e-06 6.2979125e-06 1.0223142e-05
000080 6c 87 10 37 b7 88 68 38 50 11 d0 36 99 ab 87 36
       8.614599e-06 5.5440436e-05 6.2008985e-06 4.04329e-06
000090 ff 2f 8c 36 34 c1 6f 36 ba 9c 92 37 a9 13 45 37
       4.1779126e-06 3.5726234e-06 1.7477538e-05 1.17466925e-05
0000a0 5a 72 03 37 a1 25 26 37 9f 9a d4 36 ab d2 21 37
       7.834833e-06 9.903132e-06 6.3360926e-06 9.645398e-06
0000b0 bf ba 0a 37 21 9f d7 36 3b 19 07 37 e8 30 57 37
       8.268921e-06 6.4260244e-06 8.0525015e-06 1.28263855e-05
0000c0 81 26 7b 36 02 8e 1c 39
       3.7424327e-06 0.00014930221

exp_avg_sq_col f4 [768]
000000 e2 16 24 37 f1 7e 40 37 24 5b 89 37 72 b0 11 37
       9.78049e-06 1.1473648e-05 1.6374113e-05 8.683755e-06
000010 f0 26 85 36 34 f9 fd 36 4a 2c 46 37 4d 14 4d 37
       3.968242e-06 7.5689986e-06 1.18120315e-05 1.2223679e-05
000020 7f 5f b2 37 cb c7 bf 36 71 09 12 37 b9 a4 da 36
       2.1263722e-05 5.7155025e-06 8.704476e-06 6.5160825e-06
000030 c0 ff e1 37 16 7a 28 37 e5 2c 96 36 85 d4 c0 36
       2.6941183e-05 1.0042006e-05 4.4755748e-06 5.7467864e-06
000040 2b 5c 38 37 ee 8b f4 36 ae 2b 64 37 33 26 b7 36
       1.0988714e-05 7.2880566e-06 1.3600029e-05 5.458272e-06
000050 85 07 e3 36 c4 74 05 37 42 ad 5d 37 a8 f6 86 36
       6.7660026e-06 7.954604e-06 1.3212966e-05 4.0222258e-06
000060 d0 15 7f 36 9d 4e cd 37 f8 2f f0 36 7a d9 d3 37
       3.8010658e-06 2.4474512e-05 7.1581417e-06 2.525443e-05
000070 29 7b f8 36 4e dc ba 36 6d ea f2 36 6b b4 0c 37
       7.4053137e-06 5.568879e-06 7.2394528e-06 8.386657e-06
000080 bd f8 2c 37 72 30 a9 36 f5 36 0a 37 95 7a 01 37
       1.0309913e-05 5.0422323e-06 8.238237e-06 7.71754e-06
000090 62 4b a2 37 1a df 0c 38 96 09 82 36 15 ad 21 37
       1.9347008e-05 3.358638e-05 3.875418e-06 9.636647e-06
0000a0 9f 2c 3f 37 fd e1 29 37 c1 2e 08 37 84 d8 42 37
       1.1394876e-05 1.0125802e-05 8.117117e-06 1.1613713e-05
0000b0 66 83 03 38 f9 8d da 36 dc 19 b2 37 d8 bc b7 36
       3.135521e-05 6.513434e-06 2.1231295e-05 5.4758093e-06
0000c0 ec b1 e8 36 ff cc 6e 37 63 c0 63 37 5f fe f0 36
       6.9348516e-06 1.4233635e-05 1.3575048e-05 7.18217e-06
0000d0 0b 7a 4d 37 2c 38 97 36 a3 e3 18 38 ba 3a 18 37
       1.22473675e-05 4.50669e-06 3.6451627e-05 9.073579e-06
0000e0 0d e7 35 37 01 c9 e8 36 ef 7c af 36 cc 28 94 36
       1.0842236e-05 6.9375387e-06 5.2299506e-06 4.415493e-06
0000f0 a3 d0 55 37 83 26 8c 36 34 40 11 37 77 47 a4 36
       1.2744366e-05 4.1768085e-06 8.657622e-06 4.8959005e-06
000100 0f fb e9 36 4d 25 92 37 3b ff de 36 9b 9e e2 36
       6.973168e-06 1.7421926e-05 6.6458283e-06 6.753789e-06
000110 7d 4b ab 38 bc 31 a0 36 33 e2 05 37 ae ec 66 37
       8.167976e-05 4.7741614e-06 7.980084e-06 1.3764175e-05
000120 87 e2 b7 36 fd a8 46 37 36 f5 06 37 b0 42 cc 36
       5.4801963e-06 1.1841065e-05 8.044115e-06 6.087437e-06
000130 6a f8 1f 37 6e 17 0b 37 c5 3f 8d 36 19 2c 51 37
       9.534977e-06 8.290501e-06 4.209551e-06 1.2467638e-05
000140 87 fd 5c 37 db 39 0f 37 70 8d f0 36 0b 3b 96 37
       1.3172051e-05 8.536935e-06 7.169023e-06 1.7908887e-05
000150 e8 f0 4f 37 9e ae 14 37 bb 96 05 39 83 a3 1f 37
       1.2394252e-05 8.862144e-06 0.0001274002 9.515209e-06
000160 b9 49 cd 36 2d e4 a1 36 a7 af bb 36 c4 67 d8 36
       6.1180585e-06 4.824737e-06 5.593483e-06 6.4493815e-06
000170 2a 98 70 37 b5 82 e3 36 dc 97 b2 36 c9 9b b7 36
       1.4340543e-05 6.7803435e-06 5.322492e-06 5.471961e-06
000180 91 0a b7 36 f6 f2 72 37 74 65 b2 36 d2 b3 d5 36
       5.455055e-06 1.4480893e-05 5.316624e-06 6.3688285e-06
000190 ec b6 3b 37 cd ca 61 37 dd 58 88 37 bb 5f b0 36
       1.1188658e-05 1.3458263e-05 1.6253844e-05 5.2563532e-06
0001a0 b7 53 a6 36 ec 37 53 38 df 2f cc 36 82 5b ad 36
       4.956931e-06 5.03584e-05 6.0852467e-06 5.1664547e-06
0001b0 74 b4 d2 36 dc 5b 81 37 d8 37 ce 36 99 06 19 37
       6.279495e-06 1.5420774e-05 6.1457795e-06 9.121047e-06
0001c0 a6 85 d0 36 39 b9 b4 36 94 bf 18 37 df d3 bb 36
       6.214442e-06 5.385981e-06 9.104511e-06 5.5976993e-06
0001d0 1f 2e d8 36 be 70 6e 36 c2 b6 c6 39 34 ff 01 37
       6.442671e-06 3.5530388e-06 0.00037901668 7.748418e-06
0001e0 b9 53 65 36 44 0d 87 36 e1 6b df 37 02 99 a9 36
       3.4172392e-06 4.024858e-06 2.6633907e-05 5.054405e-06
0001f0 71 72 26 37 30 2b e3 36 ae d8 8c 37 53 64 04 37
       9.9210165e-06 6.770155e-06 1.67902e-05 7.891172e-06
000200 97 64 d5 36 05 4c 74 37 16 cf c0 37 1e eb 01 37
       6.359605e-06 1.4561233e-05 2.2984615e-05 7.743742e-06
000210 2f 76 6a 36 4c 37 15 37 82 fa 11 37 a2 a4 8a 37
       3.493751e-06 8.893967e-06 8.700999e-06 1.6527545e-05
000220 f1 ad 2c 37 26 d3 1e 37 76 4e f7 36 c4 2d 15 37
       1.0292498e-05 9.466696e-06 7.3703077e-06 8.891748e-06
000230 e4 e7 ea 36 13 e8 74 37 19 ee 40 37 1f 6f 0f 38
       7.000739e-06 1.4597567e-05 1.1499528e-05 3.4197346e-05
000240 d7 73 0b 37 d9 21 a0 37 10 f6 16 37 98 1e 96 37
       8.312017e-06 1.9089248e-05 8.997988e-06 1.789564e-05
000250 50 c3 b1 36 88 f1 43 37 8f 8e a5 36 a1 6a da 36
       5.2977484e-06 1.1679142e-05 4.933979e-06 6.5093195e-06
000260 72 ce 25 37 e7 14 bf 37 f1 54 d0 36 c5 40 ce 36
       9.882833e-06 2.2778708e-05 6.2087715e-06 6.1468186e-06
000270 10 e7 0f 37 11 36 0e 37 18 b1 b1 37 0c fb c1 36
       8.577263e-06 8.476448e-06 2.118251e-05 5.781074e-06
000280 e4 c4 b7 36 12 c0 29 37 30 d1 6d 37 ff c7 9b 37
       5.476746e-06 1.0117905e-05 1.4175006e-05 1.857057e-05
000290 68 7c 91 36 9c c7 94 36 11 d3 da 36 2b c2 88 37
       4.3358195e-06 4.4339813e-06 6.5214776e-06 1.630288e-05
0002a0 7d 9a 1f 37 60 cf 26 37 64 11 5b 38 40 02 cd 36
       9.513108e-06 9.942654e-06 5.2229865e-05 6.109738e-06
0002b0 4c 99 02 37 8a 04 c8 37 53 b0 04 37 0d 79 27 37
       7.784296e-06 2.3843972e-05 7.908867e-06 9.98216e-06
0002c0 c9 f9 d8 36 f6 23 5f 37 49 bf 97 37 95 e4 4d 37
       6.4663805e-06 1.3300209e-05 1.8089677e-05 1.2272173e-05
0002d0 52 a6 dc 36 80 34 da 36 9a d2 c5 36 37 26 8c 36
       6.575873e-06 6.503018e-06 5.8955748e-06 4.176774e-06
0002e0 0f 48 59 37 23 59 b0 37 b9 06 aa 36 ab 9f 19 37
       1.2950985e-05 2.1022342e-05 5.0671774e-06 9.156686e-06
0002f0 bb 01 de 36 16 28 38 37 1e e7 b4 36 31 62 cf 36
       6.616317e-06 1.0976588e-05 5.3913236e-06 6.1805117e-06
000300 d9 04 45 37 ae 73 be 36 62 b8 ba 36 51 ca 1b 37
       1.1743244e-05 5.675908e-06 5.564697e-06 9.285825e-06
000310 f5 54 9d 36 66 46 f6 36 fc d7 16 37 cf d3 e8 36
       4.688855e-06 7.3395668e-06 8.9909845e-06 6.9387966e-06
000320 c1 c6 65 36 29 08 61 37 66 83 fb 36 01 d9 47 37
       3.423935e-06 1.3412945e-05 7.4956797e-06 1.19118495e-05
000330 05 60 4f 37 50 58 82 37 f2 95 c3 36 a1 e1 bf 36
       1.2360518e-05 1.5538331e-05 5.828909e-06 5.7185102e-06
000340 81 61 1b 37 fd 84 af 36 36 b6 6f 37 a6 6a be 36
       9.261422e-06 5.2308883e-06 1.4287934e-05 5.6748568e-06
000350 fe cd 49 37 41 b1 ff 36 0d 14 ae 36 8c 5e 14 37
       1.2028495e-05 7.6202273e-06 5.1879383e-06 8.843501e-06
000360 fd 42 c2 36 af d1 13 37 72 fd d9 36 c3 ba da 38
       5.789449e-06 8.810704e-06 6.496609e-06 0.00010429837
000370 10 61 a1 37 1f 21 de 36 8c 94 c9 36 3e de e0 36
       1.9237894e-05 6.6199714e-06 6.00756e-06 6.7015926e-06
000380 90 7d 09 37 8c 04 c7 36 51 07 f2 36 5c b6 59 37
       8.195071e-06 5.9311915e-06 7.2130138e-06 1.2976667e-05
000390 79 14 d6 36 21 c3 0b 37 60 2e 2e 37 fb 51 f6 36
       6.3800803e-06 8.330478e-06 1.0382006e-05 7.340915e-06
0003a0 20 a2 4c 37 f4 59 85 36 64 a6 bb 36 42 db 0b 37
       1.2197095e-05 3.974181e-06 5.5924047e-06 8.336096e-06
0003b0 15 9f 4f 37 3f a0 08 37 98 0f 0c 37 dd ab 2b 37
       1.2375201e-05 8.143542e-06 8.348281e-06 1.0232409e-05
0003c0 ce 79 c8 38 98 5e 0a 37 2c 36 e8 36 c2 46 27 37
       9.559431e-05 8.247465e-06 6.9204452e-06 9.97045e-06
0003d0 88 f9 96 36 fe 9b cf 36 4e 02 fa 36 4f 6e eb 36
       4.4993976e-06 6.1872406e-06 7.450849e-06 7.0163874e-06
0003e0 54 ce 53 36 fa 46 07 37 9c eb ba 37 0a 42 fa 36
       3.156155e-06 8.063153e-06 2.2282642e-05 7.4582686e-06
0003f0 44 f5 a4 36 3c a1 99 36 d8 b0 04 37 35 d4 17 37
       4.9161335e-06 4.5785255e-06 7.908988e-06 9.04971e-06
