src/models/030922-01h11-t5-small_20/prompt_030922-15h04_20.pth (torch, 44959 bytes, 3 tensors)

embedder.weight f4 [20, 512]
0	0x3d4d1144	0.050065294
1	0xbdd54447	-0.104134135
2	0x3eb09729	0.34490326
3	0x3d9c6652	0.076367036
4	0xbd9f57a3	-0.07780387
5	0x3dd55f9c	0.10418627
6	0x3e19575e	0.14974734
7	0x3d804bfd	0.062644936
8	0xbaa1fa64	-0.0012357947
9	0xbd60700b	-0.054794353
10	0xbd746c2e	-0.05967348
11	0x3db6cdb3	0.08925953
12	0x3ca3cf8f	0.019996433
13	0xbf284caf	-0.6574201
14	0xbe1443c6	-0.14478979
15	0x3dc8cdf6	0.09804909
16	0x3d02ef58	0.031966537
17	0xbda9ce67	-0.08291321
18	0xbe913263	-0.28358755
19	0x3d2b8943	0.04187895
20	0x3d13afaa	0.0360562
21	0xbe51d7f2	-0.20492533
22	0x3dcc036a	0.09961589
23	0x3e31496e	0.17313167
24	0xbeb09c4f	-0.34494254
25	0xbe8d62ca	-0.27614433
26	0xbd64f046	-0.055893205
27	0xbe37acf0	-0.17937064
28	0x3e5546b9	0.2082776
29	0xbe91b525	-0.28458515
30	0xbd62d253	-0.055376362
31	0x3e45250e	0.19252416
32	0x3d86d44c	0.06583461
33	0xbd3e085a	-0.046394683
34	0xbeacb669	-0.33732918
35	0xbba86978	-0.005139526
36	0x3ee25728	0.4420712
37	0xbe003755	-0.12521107
38	0xbc606114	-0.01369502
39	0x3e043bfa	0.12913504
40	0xbb766a42	-0.0037599956
41	0x3cef32df	0.029199062
42	0x3dc8a44a	0.09796961
43	0xbe8376a1	-0.25676444
44	0x3c94250f	0.018084077
45	0x3e2868a7	0.16446172
46	0xbc50fb5a	-0.012755239
47	0x3e9cfb28	0.30660367
48	0xbe9e09b7	-0.30866787
49	0x3dafb1bd	0.08578823
50	0x3df213b0	0.11820161
51	0x3e2a7f92	0.16650227
52	0xbdf65f1c	-0.120298594
53	0xbd027998	-0.031854242
54	0xbe2f154b	-0.17097966
55	0x3eda43ce	0.42629856
56	0x3eaeaf08	0.34117913
57	0x3d4c6d79	0.04990909
58	0x3dc63b5e	0.09679292
59	0x3dffe07f	0.12493991
60	0x3db29820	0.08720422
61	0xbd6e423b	-0.05816863
62	0x3c6d3fd3	0.014480549
63	0x3eb999f2	0.36250263
64	0xbe09da86	-0.13462266
65	0xbe5f7d04	-0.21825033
66	0x3e3a4b18	0.18192708
67	0x3e837e7b	0.25682434
68	0x3d821663	0.06351926
69	0xb99664e8	-0.0002868541
70	0xbebecb9e	-0.37264723
71	0x3e50eb8d	0.20402355
72	0x3d2329b4	0.039834693
73	0x3d68a462	0.056797393
74	0xbd97e8c5	-0.07417444
75	0xbe45f85b	-0.19333021
76	0xbda391f8	-0.07986826
77	0x3e0fd35b	0.1404547
78	0xbd0e678d	-0.034766722
79	0x3e02b8e6	0.12765846
80	0x3e2b489f	0.16726921
81	0x3df59803	0.119918846
82	0xbedfc27d	-0.4370307
83	0x3eb5dd2c	0.35520303
84	0x3e146b81	0.14494134
85	0x3d279713	0.04091556
86	0xbdd6aa3b	-0.10481688
87	0x3f21b601	0.6316834
88	0x3d5d6d7b	0.054059487
89	0x3d3d51cb	0.046220582
90	0xbd6adf06	-0.057341598
91	0xbdfb75fb	-0.12278362
92	0x3d0adff1	0.033904973
93	0x3e5949b8	0.21219528
94	0xbe0b7d69	-0.13622059
95	0xbd50306d	-0.050827432
96	0x3e3bca55	0.18338902
97	0x3e0f5052	0.13995484
98	0x3da71a82	0.08159353
99	0x3e98e2c1	0.298605
100	0x3d8758ce	0.06608735
101	0x3cef743a	0.029230226
102	0x3e805d47	0.25071165
103	0xbdb089a4	-0.08620003
104	0xbea97bb8	-0.33102202
105	0xbe3af3c9	-0.18257059
106	0x3de143ca	0.10999258
107	0x3bcf0993	0.00631828
108	0x3d5be504	0.053685203
109	0xbe98ef34	-0.29869998
110	0x3ed74298	0.42042994
111	0x3df43e34	0.11925927
112	0xbe1d70d5	-0.15375073
113	0x3e3bdf77	0.18346964
114	0xbb029d0e	-0.0019930038
115	0x3b39eab8	0.0028368663
116	0xbe064f60	-0.13116217
117	0xbdabe36c	-0.08392987
118	0x3d10f89e	0.03539335
119	0xbe033fc5	-0.12817295
120	0xbdd9824c	-0.10620555
121	0x3f6aae0e	0.91671836
122	0x3d6677e1	0.05626667
123	0x3b79fb0a	0.0038144016
124	0xbcb0691c	-0.021534495
125	0xbea9cf71	-0.33166078
126	0x3e7f7cd2	0.24949959
127	0xbc64c1c5	-0.013962214
128	0xbd550a24	-0.052011624
129	0x3e6c2f20	0.23064852
130	0x3c4195ea	0.011815527
131	0xbe32bbb7	-0.1745442
132	0xbec09bc2	-0.37618834
133	0x3e4d1eda	0.200313
134	0xbe4bb2b9	-0.19892396
135	0xbd0b7d34	-0.03405495
136	0x3de7bc38	0.11315197
137	0xbb7e156d	-0.0038770095
138	0xbe514104	-0.20434958
139	0x3ecd4a3e	0.40095705
140	0xbd9b5d59	-0.07586164
141	0x3e8b9239	0.27259997
142	0xbe44c221	-0.1921468
143	0x3ede5b9b	0.43429264
144	0x3d362950	0.044472992
145	0xbd76f49c	-0.06029187
146	0xbe1e1921	-0.15439273
147	0xbe8009ed	-0.25007573
148	0xbba5d290	-0.0050605014
149	0x3e8f1f40	0.2795353
150	0x3e803ea1	0.25047782
151	0xbf171532	-0.59016716
152	0x3db8a8fe	0.09016608
153	0x3d1fe11e	0.039033048
154	0x3e95899a	0.29206544
155	0x3d507deb	0.050901335
156	0xbe0a098c	-0.13480204
157	0xbe0f7ce3	-0.14012484
158	0x3c77c91a	0.01512363
159	0x3d15ec59	0.03660235
160	0xbd5018f1	-0.050805036
161	0xbeab9b8e	-0.33517116
162	0x3e845967	0.2584946
163	0xbe6e76a8	-0.23287451
164	0x3d9d386e	0.07676779
165	0x3d79c569	0.06097928
166	0x3cd367ce	0.025806334
167	0xbdd855ca	-0.10563238
168	0x3dddfa5d	0.10838769
169	0x3dc9f115	0.09860436
170	0x3d96dba7	0.07366114
171	0x3d94a775	0.072585024
172	0xbd52c16e	-0.051454
173	0x3ef2ad17	0.47397682
174	0xbe33382b	-0.17501895
175	0x3eca6434	0.39529574
176	0xbe4e154a	-0.20125309
177	0xbe36088c	-0.17776698
178	0xbdc62ee9	-0.09676916
179	0x3f0d8907	0.5528721
180	0x3ebd9399	0.3702667
181	0xbec128f4	-0.37726557
182	0x3d183ad4	0.037165478
183	0xbb236f58	-0.0024938192
184	0xbd2478a7	-0.040154126
185	0xbe9796e4	-0.29607308
186	0x3e1396cb	0.14412992
187	0xbdf4740a	-0.11936195
188	0xbe173583	-0.14766507
189	0x3dd34483	0.10315802
190	0x3dcf1d66	0.10113029
191	0x3e5bee89	0.21477713
192	0xbe15d4bb	-0.14631931
193	0x3e2d7395	0.16938622
194	0x3d8365a3	0.0641587
195	0xbd8a166b	-0.06742557
196	0x3d39831c	0.04529105
197	0xbd5c90ce	-0.053849034
198	0x3e21c92c	0.15799397
199	0xbe542dd1	-0.20720603
200	0x3ddaf566	0.10691337
201	0x3be2742b	0.006910821
202	0xbe5686cc	-0.20949858
203	0xbe1f34c8	-0.15547478
204	0x3c4fc682	0.012681605
205	0x3e888649	0.2666495
206	0x3e0f9c05	0.1402436
207	0x3e4b59a3	0.19858412
208	0x3ec99458	0.3937099
209	0x3ee43065	0.44568172
210	0xbca22c8b	-0.01979663
211	0xbe3145df	-0.1731181
212	0x3e3d0a4c	0.18460959
213	0x3dd660ee	0.104677066
214	0x3e394aaa	0.18094888
215	0xbe9efffa	-0.3105467
216	0x3e587e6c	0.21141976
217	0xbebbb1bc	-0.36659038
218	0x3e0a9236	0.13532338
219	0xbe580de4	-0.21099049
220	0xbeb9d1be	-0.36292833
221	0xbd375fd4	-0.044769123
222	0x3b2876eb	0.0025705646
223	0x3db4c846	0.088272616
224	0x3e4cda23	0.20005088
225	0x3dc2a0a2	0.095032945
226	0x3ec421f5	0.38307157
227	0x3e369c8f	0.1783316
228	0xbd28fe39	-0.04125807
229	0x3de49343	0.111609004
230	0xbe971497	-0.29507896
231	0x3e128be4	0.14311177
232	0xbdb3524f	-0.087559335
233	0x3da6f15d	0.08151505
234	0xbce6c8df	-0.028171955
235	0xbe587f17	-0.21142231
236	0x3e4c8e84	0.1997624
237	0x3c0cac73	0.008586037
238	0xbd1c73ba	-0.038196303
239	0xbe94adff	-0.29038998
240	0xbd83339b	-0.06406327
241	0x3ee036c8	0.43791795
242	0xbc2153b2	-0.009846615
243	0xbba7d144	-0.005121382
244	0xbdab64cb	-0.08368834
245	0x3dc3f57d	0.095683075
246	0x3dab468a	0.08363064
247	0x3c47eb36	0.012202075
248	0x3e142c16	0.14469942
249	0x3e71bbcb	0.23606794
250	0x3e846a78	0.2586248
251	0xbe7158a5	-0.23568971
252	0x3d5c78fd	0.05382632
253	0x3ed84aab	0.42244467
254	0x3e5be3fc	0.21473688
255	0x3ddeb89f	0.108750574

exp_avg_sq_row f4 [20]
0	0x389071c0	6.887643e-05
1	0x38b39712	8.563524e-05
2	0x3827f955	4.004811e-05
3	0x388d8127	6.7474604e-05
4	0x38ee9d5d	0.000113780356
5	0x389163dd	6.93274e-05
6	0x38bdff3c	9.0597634e-05
7	0x38c49f16	9.3756404e-05
8	0x38d00359	9.9188364e-05
9	0x38a1845f	7.701734e-05
10	0x3810941c	3.4470213e-05
11	0x38bfacf4	9.139805e-05
12	0x38ef76e3	0.000114185525
13	0x392b7af8	0.0001635364
14	0x392fec8d	0.00016777423
15	0x38644d66	5.443152e-05
16	0x391b3203	0.00014800583
17	0x396dfa41	0.00022695308
18	0x39274edf	0.00015955743
19	0x390b5cfa	0.0001329071

exp_avg_sq_col f4 [512]
0	0x38994ae8	7.309561e-05
1	0x396bc618	0.00022485142
2	0x38430bbb	4.6502548e-05
3	0x38a23ea0	7.736427e-05
4	0x3974b94e	0.00023338685
5	0x38199307	3.6614972e-05
6	0x391f844d	0.00015212708
7	0x3919a4fa	0.00014652676
8	0x3961090b	0.00021461041
9	0x37f96844	2.9731666e-05
10	0x38275042	3.989065e-05
11	0x390e1668	0.00013550522
12	0x38122aac	3.4848854e-05
13	0x38250dad	3.9351802e-05
14	0x39ecb1d7	0.0004514593
15	0x381c9205	3.732929e-05
16	0x37fb7db6	2.998007e-05
17	0x387311b6	5.795221e-05
18	0x387f9623	6.0936563e-05
19	0x3836251e	4.342675e-05
20	0x382181bb	3.8506212e-05
21	0x378b61d8	1.6615653e-05
22	0x38f97a65	0.00011896043
23	0x39f885c6	0.00047401915
24	0x3801fbaa	3.0990377e-05
25	0x3885fb11	6.388699e-05
26	0x382c2c29	4.1049123e-05
27	0x39e905bb	0.00044445493
28	0x380d62dc	3.370909e-05
29	0x3906c0df	0.00012851086
30	0x38071b4a	3.2211923e-05
31	0x38fac94b	0.00011958423
32	0x38caafca	9.664854e-05
33	0x3800cc30	3.0707743e-05
34	0x39ad4448	0.00033048005
35	0x390614d3	0.00012786993
36	0x383c09a5	4.4831675e-05
37	0x380d3291	3.3664113e-05
38	0x3888513b	6.500116e-05
39	0x38a0a4fd	7.660126e-05
40	0x38170012	3.600127e-05
41	0x37e704db	2.7539607e-05
42	0x38c69456	9.4690055e-05
43	0x38d6177c	0.000102086895
44	0x391f08b6	0.00015166667
45	0x37efe447	2.859732e-05
46	0x3a6d5a86	0.00090543216
47	0x387fdd03	6.100257e-05
48	0x38623d6e	5.393981e-05
49	0x3819b7a4	3.664907e-05
50	0x3891bbad	6.949096e-05
51	0x38dc6dba	0.00010510856
52	0x39057fdf	0.00012731504
53	0x39068f2b	0.0001283257
54	0x397ff98b	0.00024411657
55	0x385a7e44	5.2092844e-05
56	0x3847cf85	4.7638565e-05
57	0x386c76ae	5.6377314e-05
58	0x37ed2915	2.8271732e-05
59	0x39526806	0.00020065912
60	0x380b1a0b	3.3164437e-05
61	0x390e2b64	0.0001355834
62	0x391e8cc3	0.00015120492
63	0x382b31c2	4.0815918e-05
64	0x384ffe10	4.958926e-05
65	0x38be4ae5	9.073856e-05
66	0x388f33d5	6.828426e-05
67	0x37f1d4e5	2.8828576e-05
68	0x3a58c10f	0.0008268514
69	0x3906cc47	0.00012855335
70	0x38dce011	0.00010532153
71	0x387586d9	5.853814e-05
72	0x385610b4	5.1037132e-05
73	0x380ba9c0	3.3298275e-05
74	0x38222112	3.865461e-05
75	0x37f49cb8	2.9160045e-05
76	0x38054c37	3.178065e-05
77	0x3886c8ef	6.427045e-05
78	0x38c1b754	9.237105e-05
79	0x39529a87	0.00020084727
80	0x39547e57	0.00020264961
81	0x38a45a5a	7.836959e-05
82	0x3882b9e8	6.233511e-05
83	0x38c180f9	9.22698e-05
84	0x37f1310b	2.8752276e-05
85	0x38dba70b	0.00010473848
86	0x37d87efc	2.5808338e-05
87	0x38b2df4b	8.529293e-05
88	0x38219034	3.851969e-05
89	0x3b029065	0.0019922492
90	0x3869b2d0	5.571806e-05
91	0x38d043ad	9.9308185e-05
92	0x3842480b	4.63203e-05
93	0x3883d39a	6.2859806e-05
94	0x38b0e2fc	8.434613e-05
95	0x3836795c	4.3505206e-05
96	0x38b538ea	8.6413536e-05
97	0x37cc65a9	2.4366034e-05
98	0x37e599dc	2.7370574e-05
99	0x3848b862	4.7855436e-05
100	0x38203ac7	3.8201713e-05
101	0x37f40927	2.9091329e-05
102	0x38f38512	0.00011611929
103	0x39464832	0.00018909646
104	0x37d01ac8	2.4808003e-05
105	0x38308c6b	4.2092444e-05
106	0x3803501e	3.130745e-05
107	0x387f6000	6.0886145e-05
108	0x388ada69	6.621035e-05
109	0x3896901f	7.179402e-05
110	0x389d24d6	7.4932046e-05
111	0x39158f2c	0.00014263083
112	0x37c63d8b	2.3632098e-05
113	0x3823882f	3.898906e-05
114	0x37fa6fcd	2.9854384e-05
115	0x3901bfec	0.00012373895
116	0x38523604	5.0118208e-05
117	0x3826d04b	3.9771472e-05
118	0x3810fa15	3.4565182e-05
119	0x379ebea6	1.8923845e-05
120	0x37f04c1b	2.8645669e-05
121	0x3854a480	5.069794e-05
122	0x37e891d9	2.772447e-05
123	0x38411261	4.6031902e-05
124	0x37d0d73f	2.4895764e-05
125	0x3a5e9b5c	0.0008491778
126	0x38b184d4	8.464759e-05
127	0x3832f1b3	4.2663607e-05
128	0x37dde204	2.64505e-05
129	0x3855294a	5.082161e-05
130	0x3883685c	6.266005e-05
131	0x37e72608	2.7555056e-05
132	0x38ca4d7f	9.6465454e-05
133	0x391e35b8	0.00015088066
134	0x38cf5c0e	9.887676e-05
135	0x380e4c5e	3.392656e-05
136	0x393c9755	0.00017985453
137	0x389eb7e5	7.56828e-05
138	0x37d6d84d	2.561151e-05
139	0x37e68b3c	2.7482973e-05
140	0x37e72f29	2.7559307e-05
141	0x39b6d085	0.00034869104
142	0x38c4f706	9.39202e-05
143	0x38118ced	3.470194e-05
144	0x383f496c	4.5606328e-05
145	0x38c19d15	9.232216e-05
146	0x38ed8a17	0.00011326762
147	0x390dc81e	0.00013521357
148	0x38b77938	8.748699e-05
149	0x3940121a	0.0001831729
150	0x37c6a6b7	2.3681072e-05
151	0x38013568	3.0805735e-05
152	0x391a9e91	0.00014745655
153	0x37ecf8c7	2.8249238e-05
154	0x38298581	4.0417075e-05
155	0x380474cd	3.158003e-05
156	0x37ff23e3	3.041508e-05
157	0x38e8b542	0.00011096384
158	0x38bbf3d7	8.9622736e-05
159	0x3acf73f8	0.0015827408
160	0x380b71b7	3.3246088e-05
161	0x391e4320	0.0001509306
162	0x37de5fa4	2.6508998e-05
163	0x3825afcc	3.950279e-05
164	0x38b6eeeb	8.722938e-05
165	0x389c9da3	7.468022e-05
166	0x385f5be0	5.325291e-05
167	0x38cb4197	9.6920114e-05
168	0x37f390f0	2.903535e-05
169	0x37be93a3	2.2718514e-05
170	0x390e479a	0.00013568849
171	0x3845fd20	4.72042e-05
172	0x3881b7f1	6.185461e-05
173	0x37c754ff	2.3762228e-05
174	0x3829020e	4.0294653e-05
175	0x3884cac3	6.332018e-05
176	0x3836495b	4.34605e-05
177	0x3910ab9a	0.00013796837
178	0x37ee98fe	2.8443053e-05
179	0x38222289	3.8655973e-05
180	0x37be3e77	2.2678852e-05
181	0x38a2a65d	7.7557495e-05
182	0x392cc510	0.0001647661
183	0x38fd190a	0.00012068644
184	0x398a2b42	0.0002635364
185	0x3841f258	4.6240486e-05
186	0x383d95fe	4.5200803e-05
187	0x389c2c61	7.446926e-05
188	0x3821f894	3.8616898e-05
189	0x38ba7373	8.890675e-05
190	0x3a5bd575	0.00083859946
191	0x38f34532	0.000116000316
192	0x382b6ae3	4.0869123e-05
193	0x39408e57	0.00018363573
194	0x384464fa	4.6824083e-05
195	0x37d8b45d	2.5833195e-05
196	0x37e9d3b3	2.7874345e-05
197	0x391d9a15	0.00015030087
198	0x37fd711b	3.021262e-05
199	0x382ad8e3	4.073315e-05
200	0x390031db	0.00012225604
201	0x390d492c	0.00013474067
202	0x38c13ed6	9.214661e-05
203	0x38ac683a	8.221013e-05
204	0x387ef79b	6.078892e-05
205	0x388fdf95	6.860417e-05
206	0x38a9484d	8.072015e-05
207	0x390c6b3e	0.00013391391
208	0x388815ae	6.4890235e-05
209	0x380a010c	3.290274e-05
210	0x38114c51	3.464177e-05
211	0x3809b4e1	3.2831802e-05
212	0x3901492e	0.0001232966
213	0x394d34be	0.00019569971
214	0x380799b5	3.232966e-05
215	0x37f71f45	2.9459256e-05
216	0x3896a45c	7.183172e-05
217	0x3895fd38	7.152039e-05
218	0x399d9898	0.00030059065
219	0x37d523ed	2.5408308e-05
220	0x37ed595d	2.8294215e-05
221	0x37e875a2	2.7711332e-05
222	0x39038a3c	0.0001254463
223	0x38255c94	3.9425286e-05
224	0x399e79bb	0.00030226805
225	0x38224ff7	3.8698283e-05
226	0x392db421	0.00016565669
227	0x37b866b9	2.1982343e-05
228	0x38ec0060	0.00011253427
229	0x38f91edd	0.00011878994
230	0x3852365c	5.0118528e-05
231	0x37f04ddd	2.8646487e-05
232	0x38fe9ae6	0.00012140516
233	0x388f911e	6.8458015e-05
234	0x39b6e2d1	0.00034882737
235	0x389ed9f7	7.574626e-05
236	0x38803471	6.1132836e-05
237	0x387958d2	5.9448947e-05
238	0x3811e016	3.477939e-05
239	0x38f879ce	0.000118482494
240	0x395d827d	0.00021124813
241	0x39150ad8	0.00014213787
242	0x38a2c337	7.7611236e-05
243	0x3806c6ef	3.213336e-05
244	0x3998632d	0.0002906559
245	0x3a860604	0.0010225181
246	0x3913e1a3	0.00014103069
247	0x38fa5823	0.00011937346
248	0x38928334	6.986261e-05
249	0x39047f6a	0.00012635966
250	0x37c8fcbe	2.395955e-05
251	0x382fc264	4.190429e-05
252	0x38e4a7d4	0.000109031476
253	0x37c4b036	2.3447075e-05
254	0x37af14b4	2.0871266e-05
255	0x386dcbed	5.6695124e-05
