src/models/030922-01h13-t5-small_50/prompt_030922-14h48_50.pth (torch, 106527 bytes, 3 tensors)

embedder.weight f4 [50, 512]
000000 6f 86 4e bc de d9 9d be 4c 30 8f 3c ae cc 48 be
       -0.012605294 -0.30830282 0.017479084 -0.19609329
000010 83 74 91 be 32 2e ba 3d 80 2c 14 be a2 b7 4e bd
       -0.28409204 0.09090842 -0.144701 -0.050468095
000020 4c 8f b3 bc 7d 89 2b be 10 6d f5 be 10 1a 24 be
       -0.021918915 -0.16751666 -0.4793477 -0.16025567
000030 11 95 7e be ed d3 11 bf 6d 4c 07 be a9 39 79 3d
       -0.24861552 -0.56964 -0.13212748 0.060846005
000040 63 42 53 be f4 02 08 3e 7b c6 2e be cd e6 57 be
       -0.20630793 0.13282377 -0.17067902 -0.21084137
000050 cd e3 7f bd 42 52 79 3e 4d b0 39 be e7 90 06 bc
       -0.062473107 0.24347785 -0.1813366 -0.008213258
000060 57 ac bf bc 3e 76 e6 bd a4 ce 81 3e 61 51 07 be
       -0.023397608 -0.11253022 0.25352967 -0.13214637
000070 5d 27 0f be 04 fa 87 bd 38 8e cc 3d 4a fd 27 3e
       -0.1397986 -0.066394836 0.099880636 0.16405216
000080 a1 f9 e2 3e 45 f6 84 3c 0e 5e 2c bd ed 43 87 3e
       0.44331077 0.016230712 -0.042081885 0.2641901
000090 07 ba 2b be 16 3e 19 3e e0 bd 5b 3e 36 ab 88 3e
       -0.16770183 0.1496509 0.2145915 0.26693124
0000a0 5d 18 6c be b5 5c 1b be 45 9c 48 bd f2 0d a6 be
       -0.23056169 -0.15172084 -0.048977155 -0.32432514
0000b0 cb 1e fd bc a7 5c 9d 3e f0 65 68 3d 6f b2 8d 3d
       -0.030898472 0.3073475 0.05673784 0.06918799
0000c0 ee b0 a1 3c 3e c5 fe bd f4 37 af be 03 2d ab be
       0.019737687 -0.12439965 -0.34222376 -0.3343278
0000d0 e1 dc 6a be 44 76 d9 bc e8 1a 5d 3e f6 bb ae 3d
       -0.22935821 -0.026545651 0.21592295 0.085319445
0000e0 cc ae a4 3d ba 4f 94 be d3 7d 55 be 92 81 b2 be
       0.08041152 -0.28967077 -0.2084878 -0.3486448
0000f0 4c a2 e5 3e ef 5d 9d 3d 71 5f 3a 3e 4b c5 b7 3d
       0.44850385 0.07683932 0.1820047 0.089731775
000100 c7 9c 87 bc ae 9f d3 bd d0 3b 3f 3e 57 39 ea bd
       -0.01655425 -0.10333191 0.1867516 -0.11436718
000110 d2 89 93 3e 03 d5 56 3e aa 12 bc bc f4 17 92 3c
       0.28816086 0.20979695 -0.022958118 0.017833687
000120 31 06 b7 be 4b e5 bc 3d d5 fd a7 3d df c7 ca 3d
       -0.3574691 0.09223422 0.082027115 0.09901404
000130 36 0f 3b bd 4c f8 cc 3e ac ba 9d 3e c9 55 95 3c
       -0.045668803 0.40033185 0.30806482 0.018229382
000140 f0 dd 2f bd 60 13 6c 3b 36 c9 1e be 46 6f 51 3e
       -0.042936265 0.003602229 -0.15506443 0.20452604
000150 08 6c f8 b9 b9 cc 86 3d ff 47 21 3e 4e 10 3f bd
       -0.00047382736 0.065820165 0.1575012 -0.04664641
000160 f2 5e 80 3e 7b c8 41 3e 15 ca c1 3e e9 09 91 3e
       0.25072438 0.18924133 0.3784949 0.28327873
000170 58 34 75 be a6 0b 65 3c c7 74 27 3d 5a c6 71 3d
       -0.23945749 0.013979828 0.040882852 0.059027053
000180 dc bc 13 be 62 12 67 3e bc 48 dc be 7e a0 5d 3c
       -0.14427513 0.22565606 -0.43024242 0.013527034
000190 12 37 97 be c8 ba e5 be 00 fc 44 be 9b 49 d6 bd
       -0.29534203 -0.44869065 -0.19236755 -0.10463258
0001a0 b6 d1 d2 3e 24 d6 37 be 87 63 20 bc 0a 16 b4 3e
       0.41175622 -0.17952782 -0.009789354 0.35173064
0001b0 57 5d 54 bd fa 2e d3 3b 7c fc 36 3e cc d2 d6 bc
       -0.05184683 0.006444809 0.17869753 -0.026223563
0001c0 08 fa fa bd c2 16 a3 3e 79 31 8b 3d da 61 08 bd
       -0.12254721 0.318533 0.067965455 -0.033296444
0001d0 0a 8a c2 be 88 37 9f 3d 88 f2 ff bc 1e 9e a9 bd
       -0.3799594 0.077742636 -0.031243578 -0.082821116
0001e0 be 8a da bd af f5 03 bd 88 d0 7a 3c 69 bc ea be
       -0.10670994 -0.032216724 0.015308507 -0.4584687
0001f0 2f b8 af 3d 79 bb 44 3e 14 47 db bc 7d b2 e0 3e
       0.08580052 0.1921214 -0.026767291 0.43886176
000200 f3 f9 26 3e 7a 76 95 3e 87 44 2a 3e 99 ba 1b 3d
       0.16306286 0.29191953 0.16627704 0.03801975
000210 a8 44 34 bd ae 11 f4 3d c0 8d 45 bd d6 4e 36 be
       -0.04401079 0.11917435 -0.048230886 -0.17803511
000220 41 40 ba bd ac b7 3d 3d 48 66 88 bd 50 7d f1 3e
       -0.09094287 0.04631774 -0.066601336 0.47165918
000230 85 f3 3f be 6d 24 b9 3d d2 b2 39 be 5a 98 40 3e
       -0.18745239 0.09040151 -0.18134621 0.18808118
000240 84 2e 64 be d0 2e 2e 3d 6a bf 68 be 69 89 f0 3e
       -0.2228337 0.042525113 -0.22729269 0.46979836
000250 fa 58 f3 bd 60 87 07 3e f5 f1 eb 3b 22 0a d0 3e
       -0.11882205 0.13235235 0.0072004744 0.4063273
000260 7d 93 42 be 43 7a cb bd 60 0e 7b be bf 86 a8 3d
       -0.19001575 -0.09935429 -0.24517202 0.08228826
000270 d9 08 c7 bd 87 6d 3a bd 52 a5 8d 3e c9 c7 52 be
       -0.097184844 -0.04551461 0.27665192 -0.20584024
000280 70 6f 4a bd c5 eb 87 bd 0f 03 df be 37 71 d0 bd
       -0.04942268 -0.06636766 -0.4355702 -0.10177844
000290 c2 9a de 3d 86 89 5c be f1 9c 34 bc cd 3a ff 3d
       0.108693615 -0.21536836 -0.011023746 0.12462387
0002a0 44 23 ae bd c3 ee 35 be a0 ca 70 3d 45 07 ae 3e
       -0.0850282 -0.17766862 0.05878699 0.3398992
0002b0 4c df 6f 3d 4b 55 6a 3e 73 9f a6 be 10 36 51 3e
       0.058562562 0.22884099 -0.32543525 0.2043078
0002c0 dd 2c 84 3d c7 04 9c 3e 13 ea 3e bd 3f e5 07 bf
       0.064538695 0.30472395 -0.04660995 -0.53084177
0002d0 0f cf 1d be 28 07 0f bd 46 01 9a bc 62 2a 42 bc
       -0.15411018 -0.034918934 -0.018799435 -0.011850925
0002e0 5e 83 19 be 96 5e 19 bd 29 67 0f 3e 7c ce 31 3e
       -0.14991519 -0.03744372 0.14004196 0.17363924
0002f0 f2 85 a8 bd d8 ef 93 be 7f 05 2d 3b aa c0 a4 3d
       -0.08228673 -0.28893924 0.002640098 0.0804456
000300 c0 b5 28 3d 43 41 2a be ee dd 2d bf 30 37 19 bf
       0.041188955 -0.16626458 -0.6791676 -0.59849834
000310 27 a8 51 be 92 eb 02 3e d9 8f 83 3e 89 54 93 bd
       -0.20474301 0.12785175 0.25695685 -0.07193858
000320 43 42 00 be 62 66 40 3e b4 a3 5f be ab 77 20 3e
       -0.12525277 0.18789056 -0.21839792 0.1567065
000330 bd d5 88 3d 42 18 10 be 7b 6d 53 be 04 2c a5 bd
       0.06681392 -0.14071754 -0.20647232 -0.08065036
000340 b2 0e 00 3e a8 8d 1b 3e bf b2 0a be 3e 64 8e be
       0.12505606 0.15190756 -0.13544749 -0.27810854
000350 3b 76 a4 3e 8f cb 5c 3e 8f 0c 1c be aa fc c6 be
       0.32121453 0.21562026 -0.15239166 -0.38864642
000360 91 a0 15 be 47 4e 32 be e0 93 bb be 3d 83 15 be
       -0.14612032 -0.17412673 -0.36636257 -0.14600845
000370 51 63 0f bc 67 11 8d bd 5d 98 1f be 0b c8 6b be
       -0.008751706 -0.06888085 -0.15585466 -0.23025529
000380 cd 80 c5 3d cf 79 8f 3d 7b ab 1f 3e 3f 73 e6 be
       0.096437074 0.07005655 0.15592758 -0.450098
000390 f9 62 c7 bc 85 34 eb ba 51 de 34 3d ea 5a b7 be
       -0.024339186 -0.0017944729 0.04415733 -0.3581155
0003a0 8f da da 3d 35 81 98 3e 4b 9c 04 3e 8f e4 cb be
       0.10686218 0.29786077 0.12950246 -0.39822814
0003b0 bf 64 2a 3e 67 c0 dd be 30 3f 06 bd d6 4c c1 be
       0.16639994 -0.43310854 -0.032775104 -0.37753934
0003c0 ec 7d c1 be 4d 46 93 bc ab d6 0c 3e 21 d9 32 3e
       -0.37791383 -0.017977858 0.13753764 0.1746564
0003d0 2c d6 ae 3e e0 cd 68 bd 64 b6 d8 bd 50 b5 17 be
       0.34147775 -0.056836963 -0.10581663 -0.14815259
0003e0 5d a9 ba 3d c6 2d 86 3d 6a fd 2b 3e d7 44 d8 3e
       0.09114335 0.06551699 0.16795889 0.4224002
0003f0 18 33 ed 3d 3b 6a 9f be b4 f7 16 be 11 0e 58 bd
       0.11582011 -0.31135735 -0.14742929 -0.05274779

exp_avg_sq_row f4 [50]
000000 63 45 79 37 00 5e 11 37 48 ab e3 38 4b be 8c 37
       1.4857712e-05 8.66456e-06 0.00010856107 1.6777913e-05
000010 4b 5b 8b 37 16 a9 1a 37 0d 50 0d 37 5f 22 59 37
       1.6612603e-05 9.218484e-06 8.422893e-06 1.2942211e-05
000020 13 d5 89 37 d3 7c 6f 37 71 a5 c6 37 19 78 91 37
       1.6430893e-05 1.4274573e-05 2.3680479e-05 1.7341272e-05
000030 f5 7a 6a 37 40 c9 e9 37 d9 56 6f 37 16 6e 39 39
       1.3976115e-05 2.7869479e-05 1.4265731e-05 0.00017683985
000040 17 1a bb 37 77 74 19 38 61 5e 92 37 99 0f d0 37
       2.2304286e-05 3.658651e-05 1.7448505e-05 2.4802795e-05
000050 94 8b 5c 38 cd ba f0 37 78 cc de 37 28 92 ed 37
       5.258208e-05 2.8697215e-05 2.6559675e-05 2.8320661e-05
000060 e5 b9 a3 37 8f 37 1d 38 59 ea 1d 37 b0 59 cb 37
       1.9517678e-05 3.748346e-05 9.412493e-06 2.424125e-05
000070 32 f3 cb 37 c7 73 59 38 e3 62 ca 37 7b e8 f7 36
       2.4312732e-05 5.1844658e-05 2.4126324e-05 7.388238e-06
000080 0c 70 4d 37 fa 85 70 37 9e f4 02 38 12 68 6f 37
       1.224504e-05 1.4336309e-05 3.1222233e-05 1.4269741e-05
000090 0d e4 1d 37 57 3a 0f 37 cb fd e4 37 84 46 cc 37
       9.411026e-06 8.5370475e-06 2.72979e-05 2.4351531e-05
0000a0 a3 b5 8d 36 a4 35 6a 37 49 79 09 37 a1 0f 1a 37
       4.2232728e-06 1.3959976e-05 8.194075e-06 9.182754e-06
0000b0 9d 95 a3 37 8c 39 4c 37 03 30 f6 37 13 69 ae 37
       1.9500783e-05 1.2172746e-05 2.9347842e-05 2.0791345e-05
0000c0 d5 8b ab 37 fd 86 82 37
       2.0449903e-05 1.5560066e-05

exp_avg_sq_col f4 [512]
000000 f6 e6 7f 37 2f 33 55 38 db 1f 1f 37 11 20 86 37
       1.5252959e-05 5.0830826e-05 9.484555e-06 1.5988977e-05
000010 0e 5e 70 38 95 04 0c 37 db 9f 09 38 e7 4d f6 37
       5.7308054e-05 8.345717e-06 3.2812222e-05 2.9361761e-05
000020 c8 78 50 38 da b7 d8 36 b6 64 27 37 1d dc 02 38
       4.970355e-05 6.458705e-06 9.977424e-06 3.119941e-05
000030 24 b7 fc 36 75 b5 00 37 dc bf 27 39 10 02 09 37
       7.5315056e-06 7.671643e-06 0.00015997834 8.166317e-06
000040 e8 b4 e0 36 e9 17 5a 37 5b f9 53 37 f9 72 28 37
       6.6967805e-06 1.299938e-05 1.2634638e-05 1.00403495e-05
000050 07 68 1b 37 d0 30 91 36 07 35 07 38 14 7b 3f 39
       9.262941e-06 4.3270193e-06 3.2235894e-05 0.0001826103
000060 93 cc d5 36 11 5f a7 37 6c 65 24 37 1d 4f fb 38
       6.3717102e-06 1.995222e-05 9.798776e-06 0.00011983349
000070 3f f0 13 37 55 e1 ce 37 ec fc ed 36 46 a4 03 38
       8.817819e-06 2.4662042e-05 7.0925944e-06 3.1385825e-05
000080 a3 90 9d 37 60 36 db 36 ae 6d a4 38 01 b6 d6 37
       1.878321e-05 6.5330387e-06 7.840559e-05 2.559554e-05
000090 1e 09 1a 37 b3 bb 12 37 ab 0d 6b 37 13 42 8a 37
       9.181238e-06 8.74598e-06 1.4010274e-05 1.648165e-05
0000a0 e5 e8 21 37 c8 22 df 36 70 d3 cf 37 6f 0a b8 37
       9.650573e-06 6.649967e-06 2.4774781e-05 2.1939368e-05
0000b0 e6 ff f5 37 f5 9d de 36 53 91 6b 39 2f 4a 6b 37
       2.9325438e-05 6.634504e-06 0.00022465484 1.4024364e-05
0000c0 4a c2 3e 37 c2 b7 15 37 d5 d5 61 37 65 8b b0 37
       1.1370119e-05 8.9238765e-06 1.3460832e-05 2.1045746e-05
0000d0 73 93 ec 37 05 11 df 37 79 e4 61 38 f2 b4 2e 37
       2.8202054e-05 2.6591597e-05 5.3856962e-05 1.0413338e-05
0000e0 11 90 4b 37 fe d4 62 37 6a 7c eb 36 7e 32 40 38
       1.2133286e-05 1.3520241e-05 7.0180295e-06 4.582339e-05
0000f0 0d aa da 36 3f 5a 0c 38 77 ad 2b 38 b1 8d 31 37
       6.516703e-06 3.346265e-05 4.093113e-05 1.0583012e-05
000100 02 54 31 37 54 cd 9f 37 3d 9d 70 37 6f 42 e1 36
       1.0569582e-05 1.904989e-05 1.4341725e-05 6.7132564e-06
000110 b9 1f 54 39 11 80 e6 37 25 93 ce 37 b0 99 41 37
       0.00020229713 2.7477772e-05 2.4625633e-05 1.153948e-05
000120 3a 54 44 37 55 d9 f6 36 69 b7 31 37 50 1e 05 37
       1.1702121e-05 7.356672e-06 1.0592726e-05 7.934475e-06
000130 a9 e5 f8 36 4f 6b 75 37 f0 9d a3 37 51 26 30 38
       7.417712e-06 1.4628123e-05 1.950466e-05 4.1997355e-05
000140 78 58 2d 38 5a 7f a6 37 ee 3c 9e 37 27 4b a9 37
       4.1328807e-05 1.9848045e-05 1.886344e-05 2.0181365e-05
000150 0f 6e c1 36 0b 11 c0 37 25 84 d7 36 69 f7 de 37
       5.7646607e-06 2.289612e-05 6.422883e-06 2.6579672e-05
000160 e2 58 1a 37 b4 65 d3 39 b4 f3 5b 37 35 3a c0 37
       9.19981e-06 0.0004032083 1.3110159e-05 2.2915288e-05
000170 ff 28 29 37 35 55 62 37 41 cd a0 37 9c 41 25 37
       1.008273e-05 1.34904885e-05 1.9169065e-05 9.850042e-06
000180 94 3f 92 37 97 09 b4 36 06 24 06 37 07 23 29 37
       1.7434162e-05 5.3655344e-06 7.99541e-06 1.008134e-05
000190 d2 d7 20 37 88 1b e3 36 8b fc d8 37 98 43 1e 38
       9.586993e-06 6.7683322e-06 2.5866806e-05 3.7733087e-05
0001a0 01 49 bf 36 06 ee 23 37 9d 76 e6 36 aa 6f 4b 37
       5.7007423e-06 9.770976e-06 6.8683426e-06 1.2125742e-05
0001b0 b4 ad 7b 37 fc 88 9c 37 f0 43 a9 37 5b 30 0b 38
       1.5001209e-05 1.8660437e-05 2.0178006e-05 3.3185217e-05
0001c0 48 ec b8 36 11 c4 0f 37 d6 b4 cc 36 b8 5a c9 37
       5.511134e-06 8.5691145e-06 6.100726e-06 2.4003311e-05
0001d0 00 af 25 37 47 8e 0a 37 72 1c 04 37 63 b1 b0 36
       9.875512e-06 8.2585675e-06 7.874436e-06 5.2658593e-06
0001e0 1e 5f cd 36 b7 d4 39 37 c5 bf c6 36 b7 62 50 37
       6.120549e-06 1.1076386e-05 5.9231847e-06 1.242075e-05
0001f0 84 8a d7 36 ba 77 53 39 a5 e8 ac 37 b9 f6 26 37
       6.4236247e-06 0.0002016713 2.0612331e-05 9.951816e-06
000200 54 1b 14 37 b2 6a 36 37 ab 25 72 37 8a b5 ed 36
       8.82785e-06 1.0872887e-05 1.4433094e-05 7.0842843e-06
000210 e0 2a b1 37 e7 56 01 38 b1 12 a4 37 26 68 00 37
       2.112001e-05 3.083693e-05 1.9559027e-05 7.6536435e-06
000220 44 fb 34 38 cf 30 a1 37 75 44 cf 36 e8 84 e1 36
       4.3149354e-05 1.9215424e-05 6.17705e-06 6.720995e-06
000230 40 9c ee 36 fb 5f b0 38 b6 6f 9a 37 31 07 14 37
       7.1111426e-06 8.410212e-05 1.841025e-05 8.823162e-06
000240 70 d7 2a 37 2a c3 bb 37 d8 cd c1 37 d6 ff e3 37
       1.018295e-05 2.2383017e-05 2.3103246e-05 2.7179642e-05
000250 44 9e c5 37 b4 c2 1f 38 03 ff bc 36 90 87 e5 36
       2.3557928e-05 3.8089885e-05 5.632524e-06 6.8405134e-06
000260 6c f0 0a 38 60 db e3 36 08 66 2f 37 c9 4c e1 36
       3.3125674e-05 6.790666e-06 1.0454569e-05 6.7144615e-06
000270 0a 30 ea 36 4e 7f 03 38 ac 1d ae 37 09 85 ac 39
       6.979336e-06 3.1351396e-05 2.0756233e-05 0.00032905515
000280 76 7a 13 37 4f 22 08 38 f0 98 e4 36 7b 10 22 37
       8.790395e-06 3.245688e-05 6.812734e-06 9.65979e-06
000290 e6 ef 98 37 75 48 86 37 74 77 65 37 89 48 be 37
       1.8231523e-05 1.6007785e-05 1.3677276e-05 2.2683542e-05
0002a0 7e 6d 06 37 e5 03 c0 36 de 01 05 38 04 29 28 37
       8.0125155e-06 5.7224993e-06 3.171141e-05 1.002313e-05
0002b0 d7 f6 64 37 2d 28 c0 36 60 76 0f 37 34 4a 68 37
       1.3647331e-05 5.726723e-06 8.5510255e-06 1.3845554e-05
0002c0 99 01 27 37 3d 5a eb 37 92 06 d6 36 01 53 07 37
       9.954348e-06 2.8056204e-05 6.378462e-06 8.065953e-06
0002d0 64 19 a9 36 54 3c a1 37 bc 42 48 38 79 00 cb 37
       5.0395483e-06 1.9220788e-05 4.7745867e-05 2.4199706e-05
0002e0 3f ce 5b 38 5c 12 16 37 9c a5 25 37 d9 05 94 37
       5.240575e-05 8.944971e-06 9.873325e-06 1.7645698e-05
0002f0 76 04 fa 36 21 ee b1 37 0d 01 4f 39 8e ca 0a 38
       7.4511e-06 2.1210932e-05 0.0001974145 3.3090408e-05
000300 c0 93 37 37 e4 6f 14 38 89 82 23 37 45 35 c7 36
       1.0942051e-05 3.5390156e-05 9.74595e-06 5.9368635e-06
000310 19 6a 03 37 3c b2 00 38 f3 01 02 37 86 9d 47 37
       7.832911e-06 3.0683572e-05 7.749058e-06 1.1898001e-05
000320 86 ea ec 37 ce 27 f3 37 12 44 a9 37 0b e7 93 37
       2.82426e-05 2.8986393e-05 2.0178068e-05 1.7631353e-05
000330 ba b8 7f 37 67 9e 6e 37 3b b3 9c 37 68 6a 0a 38
       1.5242194e-05 1.4222786e-05 1.868011e-05 3.3000862e-05
000340 b1 b1 59 37 df 42 04 37 56 9e 0a 37 f5 1d 19 37
       1.297558e-05 7.883383e-06 8.262306e-06 9.126486e-06
000350 46 eb c8 37 f0 9c 0e 38 09 7d 07 37 93 a2 d9 36
       2.3951416e-05 3.4001598e-05 8.075739e-06 6.48603e-06
000360 00 d3 76 37 15 0d 8a 37 bf bb 83 38 2c 72 cd 36
       1.471187e-05 1.6456974e-05 6.281537e-05 6.1227674e-06
000370 b7 c4 e7 36 7e cb d4 36 b6 f6 d4 37 12 d5 1c 37
       6.907237e-06 6.341782e-06 2.5387253e-05 9.347934e-06
000380 64 0b 5a 38 04 d2 fa 36 ed 6b 16 38 52 a9 bc 36
       5.198586e-05 7.4750296e-06 3.58633e-05 5.622548e-06
000390 99 6d c7 37 ed 42 d5 37 f3 53 35 37 14 1e cd 36
       2.3773684e-05 2.5422743e-05 1.0807987e-05 6.1129776e-06
0003a0 6b 90 03 38 c5 3f 74 37 16 b8 9b 38 b9 81 88 37
       3.1367334e-05 1.4558381e-05 7.4252646e-05 1.627287e-05
0003b0 47 9d 69 37 69 bd 5a 37 7b 71 0d 37 8d bf dc 37
       1.3924501e-05 1.3037913e-05 8.430677e-06 2.6315241e-05
0003c0 ec d4 3d 38 35 80 01 38 cc a9 89 37 17 87 e0 36
       4.525941e-05 3.08754e-05 1.641074e-05 6.6914467e-06
0003d0 c0 26 a7 38 cd e6 b4 39 fa 30 03 38 d3 71 cd 37
       7.970398e-05 0.00034504235 3.1278447e-05 2.4490908e-05
0003e0 23 bb bc 37 28 e2 d7 37 25 6e aa 36 c3 80 2c 37
       2.2498489e-05 2.573531e-05 5.0792173e-06 1.0281979e-05
0003f0 25 76 df 37 cc 95 bb 36 29 35 a2 36 d2 f7 43 37
       2.6638687e-05 5.590473e-06 4.834165e-06 1.1680606e-05
